fundamentals.pth (torch, 1759 bytes, 3 tensors)

input_to_hidden_layer.weight f4 [8, 2]
0	0xbe8fcad7	-0.28084442
1	0xbe6b2d9c	-0.22966617
2	0x3f80cce5	1.0062529
3	0x3f147125	0.57985145
4	0xbd1ba7c0	-0.038001776
5	0xbe298d1c	-0.16557735
6	0x3e9509ad	0.29108945
7	0xbe3e6eaa	-0.18596902
8	0x3f6227e2	0.88342106
9	0x3e05d041	0.13067724
10	0xbf1504cc	-0.58210444
11	0xbda1e5b0	-0.079051375
12	0xbe89f1d7	-0.26942322
13	0xbf2fd467	-0.68683475
14	0xbe7f5dc8	-0.24938118
15	0x3da3da6d	0.08000646

input_to_hidden_layer.bias f4 [8]
0	0xbe3d206c	-0.18469399
1	0xbeecacd9	-0.46225622
2	0xbf283aea	-0.65714896
3	0xbf152e7b	-0.5827405
4	0x3ec40e66	0.38292235
5	0x3e053784	0.13009459
6	0xbeefe64a	-0.46855384
7	0x3f173db7	0.59078544

hidden_to_output_layer.weight f4 [1, 8]
0	0xbea35e69	-0.31907967
1	0x3f6edddf	0.933073
2	0xbe62e875	-0.22158988
3	0xbde90643	-0.113781475
4	0x3f185ea3	0.59519404
5	0xbe1485c8	-0.14504158
6	0x3e9dd771	0.3082843
7	0x3d8a9445	0.067665614
